…
chain.0.odefunc.odefunc.diffeq.layers.2._hyper_gate.weight
chain.0.odefunc.odefunc.diffeq.layers.2._hyper_gate.bias
chain.0.odefunc.odefunc.diffeq.layers.3._layer.weight
chain.0.odefunc.odefunc.diffeq.layers.3._layer.bias
chain.0.odefunc.odefunc.diffeq.layers.3._hyper_bias.weight
chain.0.odefunc.odefunc.diffeq.layers.3._hyper_gate.weight
chain.0.odefunc.odefunc.diffeq.layers.3._hyper_gate.bias
SequentialFlow(
  (chain): ModuleList(
    (0): CNF(
      (odefunc): RegularizedODEfunc(
        (odefunc): ODEfunc(
          (diffeq): ODEnet(
            (layers): ModuleList(
              (0): ConcatSquashLinear(
                (_layer): Linear(in_features=36, out_features=256, bias=True)
                (_hyper_bias): Linear(in_features=1, out_features=256, bias=False)
                (_hyper_gate): Linear(in_features=1, out_features=256, bias=True)
              )
              (1): ConcatSquashLinear(
                (_layer): Linear(in_features=256, out_features=256, bias=True)
                (_hyper_bias): Linear(in_features=1, out_features=256, bias=False)
                (_hyper_gate): Linear(in_features=1, out_features=256, bias=True)
              )
              (2): ConcatSquashLinear(
                (_layer): Linear(in_features=256, out_features=256, bias=True)
                (_hyper_bias): Linear(in_features=1, out_features=256, bias=False)
                (_hyper_gate): Linear(in_features=1, out_features=256, bias=True)
              )
              (3): ConcatSquashLinear(
                (_layer): Linear(in_features=256, out_features=36, bias=True)
                (_hyper_bias): Linear(in_features=1, out_features=36, bias=False)
                (_hyper_gate): Linear(in_features=1, out_features=36, bias=True)
              )
            )
            (activation_fns): ModuleList(
              (0): Tanh()
              (1): Tanh()
              (2): Tanh()
            )
          )
        )
      )
    )
  )
)
Using 4 GPUs.
Number of trainable parameters: 152721
epoch:   0%|          | 0/32 [00:00<?, ?it/s]
Train:   0%|          | 0/3179 [00:00<?, ?it/s][A/data/cephfs/punim0011/jtan/github/ffjord/lib/layers/odefunc.py:288: UserWarning: To copy construct from a tensor, it is recommended to use sourceTensor.clone().detach() or sourceTensor.clone().detach().requires_grad_(True), rather than torch.tensor(sourceTensor).
…
