…
chain.3.odefunc.odefunc.diffeq.layers.3._layer.bias
chain.3.odefunc.odefunc.diffeq.layers.3._hyper_bias.weight
chain.3.odefunc.odefunc.diffeq.layers.3._hyper_gate.weight
chain.3.odefunc.odefunc.diffeq.layers.3._hyper_gate.bias
chain.4.weight
chain.4.bias
chain.4.step
chain.4.running_mean
chain.4.running_var
SequentialFlow(
  (chain): ModuleList(
    (0): MovingBatchNorm1d(36, eps=0.0001, decay=0.1, bn_lag=0, affine=True)
    (1): CNF(
      (odefunc): RegularizedODEfunc(
        (odefunc): ODEfunc(
          (diffeq): ODEnet(
            (layers): ModuleList(
              (0): ConcatSquashLinear(
                (_layer): Linear(in_features=36, out_features=512, bias=True)
                (_hyper_bias): Linear(in_features=1, out_features=512, bias=False)
                (_hyper_gate): Linear(in_features=1, out_features=512, bias=True)
              )
              (1): ConcatSquashLinear(
                (_layer): Linear(in_features=512, out_features=512, bias=True)
                (_hyper_bias): Linear(in_features=1, out_features=512, bias=False)
                (_hyper_gate): Linear(in_features=1, out_features=512, bias=True)
              )
              (2): ConcatSquashLinear(
                (_layer): Linear(in_features=512, out_features=512, bias=True)
                (_hyper_bias): Linear(in_features=1, out_features=512, bias=False)
                (_hyper_gate): Linear(in_features=1, out_features=512, bias=True)
              )
              (3): ConcatSquashLinear(
                (_layer): Linear(in_features=512, out_features=36, bias=True)
                (_hyper_bias): Linear(in_features=1, out_features=36, bias=False)
                (_hyper_gate): Linear(in_features=1, out_features=36, bias=True)
              )
            )
            (activation_fns): ModuleList(
              (0): Softplus(beta=1, threshold=20)
              (1): Softplus(beta=1, threshold=20)
              (2): Softplus(beta=1, threshold=20)
            )
          )
        )
      )
    )
    (2): MovingBatchNorm1d(36, eps=0.0001, decay=0.1, bn_lag=0, affine=True)
    (3): CNF(
      (odefunc): RegularizedODEfunc(
        (odefunc): ODEfunc(
          (diffeq): ODEnet(
            (layers): ModuleList(
              (0): ConcatSquashLinear(
                (_layer): Linear(in_features=36, out_features=512, bias=True)
                (_hyper_bias): Linear(in_features=1, out_features=512, bias=False)
                (_hyper_gate): Linear(in_features=1, out_features=512, bias=True)
              )
              (1): ConcatSquashLinear(
                (_layer): Linear(in_features=512, out_features=512, bias=True)
                (_hyper_bias): Linear(in_features=1, out_features=512, bias=False)
                (_hyper_gate): Linear(in_features=1, out_features=512, bias=True)
              )
              (2): ConcatSquashLinear(
                (_layer): Linear(in_features=512, out_features=512, bias=True)
                (_hyper_bias): Linear(in_features=1, out_features=512, bias=False)
                (_hyper_gate): Linear(in_features=1, out_features=512, bias=True)
              )
              (3): ConcatSquashLinear(
                (_layer): Linear(in_features=512, out_features=36, bias=True)
                (_hyper_bias): Linear(in_features=1, out_features=36, bias=False)
                (_hyper_gate): Linear(in_features=1, out_features=36, bias=True)
              )
            )
            (activation_fns): ModuleList(
              (0): Softplus(beta=1, threshold=20)
              (1): Softplus(beta=1, threshold=20)
              (2): Softplus(beta=1, threshold=20)
            )
          )
        )
      )
    )
    (4): MovingBatchNorm1d(36, eps=0.0001, decay=0.1, bn_lag=0, affine=True)
  )
)
Using 4 GPUs.
…
