…
Namespace(JFrobint=None, JdiagFrobint=None, JoffdiagFrobint=None, atol=1e-05, batch_norm=False, batch_size=100, bn_lag=0, data='pinwheel', dims='64-64-64', divergence_fn='brute_force', dl2int=None, gpu=0, l1int=None, l2int=None, layer_type='concatsquash', log_freq=10, lr=0.001, niters=10000, nonlinearity='tanh', num_blocks=1, rademacher=False, residual=False, rtol=1e-05, save='experiments/cnf', solver='dopri5', spectral_norm=False, step_size=None, test_atol=None, test_batch_size=1000, test_rtol=None, test_solver=None, time_length=0.5, train_T=True, val_freq=100, viz_freq=100, weight_decay=1e-05)
SequentialFlow(
  (chain): ModuleList(
    (0): CNF(
      (odefunc): RegularizedODEfunc(
        (odefunc): ODEfunc(
          (diffeq): ODEnet(
            (layers): ModuleList(
              (0): ConcatSquashLinear(
                (_layer): Linear(in_features=2, out_features=64, bias=True)
                (_hyper_bias): Linear(in_features=1, out_features=64, bias=False)
                (_hyper_gate): Linear(in_features=1, out_features=64, bias=True)
              )
              (1): ConcatSquashLinear(
                (_layer): Linear(in_features=64, out_features=64, bias=True)
                (_hyper_bias): Linear(in_features=1, out_features=64, bias=False)
                (_hyper_gate): Linear(in_features=1, out_features=64, bias=True)
              )
              (2): ConcatSquashLinear(
                (_layer): Linear(in_features=64, out_features=64, bias=True)
                (_hyper_bias): Linear(in_features=1, out_features=64, bias=False)
                (_hyper_gate): Linear(in_features=1, out_features=64, bias=True)
              )
              (3): ConcatSquashLinear(
                (_layer): Linear(in_features=64, out_features=2, bias=True)
                (_hyper_bias): Linear(in_features=1, out_features=2, bias=False)
                (_hyper_gate): Linear(in_features=1, out_features=2, bias=True)
              )
            )
            (activation_fns): ModuleList(
              (0): Tanh()
              (1): Tanh()
              (2): Tanh()
            )
          )
        )
      )
    )
  )
)
Number of trainable parameters: 9225
/data/cephfs/punim0011/jtan/github/ffjord/cnf_flow.py
Namespace(JFrobint=None, JdiagFrobint=None, JoffdiagFrobint=N
…
chain.0.odefunc.odefunc.diffeq.layers.2._hyper_gate.weight
chain.0.odefunc.odefunc.diffeq.layers.2._hyper_gate.bias
chain.0.odefunc.odefunc.diffeq.layers.3._layer.weight
chain.0.odefunc.odefunc.diffeq.layers.3._layer.bias
chain.0.odefunc.odefunc.diffeq.layers.3._hyper_bias.weight
chain.0.odefunc.odefunc.diffeq.layers.3._hyper_gate.weight
chain.0.odefunc.odefunc.diffeq.layers.3._hyper_gate.bias
SequentialFlow(
  (chain): ModuleList(
    (0): CNF(
      (odefunc): RegularizedODEfunc(
        (odefunc): ODEfunc(
          (diffeq): ODEnet(
            (layers): ModuleList(
              (0): ConcatSquashLinear(
                (_layer): Linear(in_features=36, out_features=256, bias=True)
                (_hyper_bias): Linear(in_features=1, out_features=256, bias=False)
                (_hyper_gate): Linear(in_features=1, out_features=256, bias=True)
              )
              (1): ConcatSquashLinear(
                (_layer): Linear(in_features=256, out_features=256, bias=True)
                (_hyper_bias): Linear(in_features=1, out_features=256, bias=False)
                (_hyper_gate): Linear(in_features=1, out_features=256, bias=True)
              )
              (2): ConcatSquashLinear(
                (_layer): Linear(in_features=256, out_features=256, bias=True)
                (_hyper_bias): Linear(in_features=1, out_features=256, bias=False)
                (_hyper_gate): Linear(in_features=1, out_features=256, bias=True)
              )
              (3): ConcatSquashLinear(
                (_layer): Linear(in_features=256, out_features=36, bias=True)
                (_hyper_bias): Linear(in_features=1, out_features=36, bias=False)
                (_hyper_gate): Linear(in_features=1, out_features=36, bias=True)
              )
            )
            (activation_fns): ModuleList(
              (0): Tanh()
              (1): Tanh()
              (2): Tanh()
            )
          )
        )
      )
    )
  )
)
Using 4 GPUs.
Number of trainable parameters: 152721
/data/cephfs/punim0011/jtan/github/ffjord/cnf_flow.py
Namespace(JFrobint=None, JdiagFrobint=None, 
…
