…
chain.0.odefunc.odefunc.diffeq.layers.2._hyper_gate.weight
chain.0.odefunc.odefunc.diffeq.layers.2._hyper_gate.bias
chain.0.odefunc.odefunc.diffeq.layers.3._layer.weight
chain.0.odefunc.odefunc.diffeq.layers.3._layer.bias
chain.0.odefunc.odefunc.diffeq.layers.3._hyper_bias.weight
chain.0.odefunc.odefunc.diffeq.layers.3._hyper_gate.weight
chain.0.odefunc.odefunc.diffeq.layers.3._hyper_gate.bias
SequentialFlow(
  (chain): ModuleList(
    (0): CNF(
      (odefunc): RegularizedODEfunc(
        (odefunc): ODEfunc(
          (diffeq): ODEnet(
            (layers): ModuleList(
              (0): ConcatSquashLinear(
                (_layer): Linear(in_features=36, out_features=256, bias=True)
                (_hyper_bias): Linear(in_features=1, out_features=256, bias=False)
                (_hyper_gate): Linear(in_features=1, out_features=256, bias=True)
              )
              (1): ConcatSquashLinear(
                (_layer): Linear(in_features=256, out_features=256, bias=True)
                (_hyper_bias): Linear(in_features=1, out_features=256, bias=False)
                (_hyper_gate): Linear(in_features=1, out_features=256, bias=True)
              )
              (2): ConcatSquashLinear(
                (_layer): Linear(in_features=256, out_features=256, bias=True)
                (_hyper_bias): Linear(in_features=1, out_features=256, bias=False)
                (_hyper_gate): Linear(in_features=1, out_features=256, bias=True)
              )
              (3): ConcatSquashLinear(
                (_layer): Linear(in_features=256, out_features=36, bias=True)
                (_hyper_bias): Linear(in_features=1, out_features=36, bias=False)
                (_hyper_gate): Linear(in_features=1, out_features=36, bias=True)
              )
            )
            (activation_fns): ModuleList(
              (0): Tanh()
              (1): Tanh()
              (2): Tanh()
            )
          )
        )
      )
    )
  )
)
Using 4 GPUs.
Number of trainable parameters: 152721
Epoch 0 | Iter 0 | Time 3.038(3.038) | Loss 37.713(37.713) | NFE Forward 20(20.0) | NFE Backward 21(21.0) | CNF Time 1.000(1.000)
…
